default_Epoch_0.ckpt (torch, 32391 bytes, 18 tensors)

conv1.bias f8 [32]
-0.018726981014974865 -3.617149423122311e-05 -0.0006906641562449599 0.004063207850876186 -0.00023677009344873486 5.8145220379890016e-05 0.004151531028552568 -0.0019873240816206165
9.180607271073596e-05 -0.0022778280498224864 -0.0001352002875755902 0.023711290810520584 0.00011499513619713538 -0.004627174342077968 0.01486853912989258 -0.00011323426160272419
-0.00836595079449845 -0.0047426774471975176 -1.8904118695004858e-05 0.005059021179121855 -3.0535779419296965e-05 -0.0001693143604618051 0.003699595589031574 -0.00013878434126115695
0.009620641084129493 -3.900415139074172e-05 -0.015362571537868058 -0.006868038150246136 -0.00011100619071247123 0.020886343477215522 -0.022936564448993974 5.678421997742934e-05
00000000: ca6b 0c6c 2a2d 93bf d195 0214 dbf6 02bf
00000010: adf7 56fb b5a1 46bf ddbe 610d 95a4 703f
00000020: 6586 b69d af08 2fbf c01f 428f 1e7c 0e3f
00000030: 6676 ef1f 3201 713f 0bd6 fc7d b847 60bf
00000040: d39a c851 0011 183f 3a55 5b9f f3a8 62bf
00000050: fb39 89a0 91b8 21bf 7efb 4eca c547 983f
00000060: a7b5 8b65 3125 1e3f a8c8 8da7 f1f3 72bf
00000070: eedf 6a8a 6573 8e3f 86e6 2dcd 05af 1dbf
00000080: 909f 7fe8 2a22 81bf 32c1 7fc8 0e6d 73bf
00000090: 6d97 1625 89d2 f3be a2c0 39a8 c4b8 743f
000000a0: 531b 4764 7102 00bf 4c88 2748 3f31 26bf
000000b0: 41b0 0642 9d4e 6e3f 6693 f069 d430 22bf
000000c0: 6f47 9596 fcb3 833f 989f e26f 0c73 04bf
000000d0: 9669 b372 6976 8fbf d946 e3f3 a821 7cbf
000000e0: 3c20 c6d5 7f19 1dbf 01b0 abc8 3a63 953f
000000f0: 289c c3c8 ae7c 97bf 0270 1df1 72c5 0d3f

conv1.fc_pool.weight f8 [6, 6]
-0.17710613483862 -0.9266250357481799 -0.3669613929148071 0.25489180017373886 0.43875405006664137 -0.16703158501631712 -0.38277351035776175 0.5646294824608494
-0.7894891605716432 0.6389707546911425 -0.40460561783182447 -0.021335354223531087 -0.1976158618927002 0.12123894691467285 -0.3021984100341797 0.727126955986023
-0.025997161865234375 0.7805994749069214 0.9614804983139038 -0.48719096183776855 -0.7295091152191162 0.8023020029067993 0.783613920211792 -0.7635473012924194
-0.08319472736874674 -0.9853723751158241 -0.8178931581327401 0.18960684777374473 0.2649372256305522 0.21130793284023444 -0.2721647024154663 0.9225777387619019
0.14297795295715332 -0.5900847911834717 -0.056613802909851074 0.24014520645141602
00000000: 6fc3 86f0 69ab c6bf 372f 068c e9a6 edbf
00000010: 4ead 5da3 4b7c d7bf 15f2 70b2 2550 d03f
00000020: 7885 01de 8b14 dc3f e9a5 857d 4a61 c5bf
00000030: c2bf 3077 5c7f d8bf 2bdb 30d9 7111 e23f
00000040: 5474 a6c5 7e43 e9bf f4f6 cfcb 7272 e43f
00000050: 5865 17f6 0ee5 d9bf 09f8 8d62 efd8 95bf
00000060: 0000 0000 7a4b c9bf 0000 0000 8409 bf3f
00000070: 0000 0000 3857 d3bf 0000 00c0 9f44 e73f
00000080: 0000 0000 009f 9abf 0000 00c0 abfa e83f
00000090: 0000 00c0 72c4 ee3f 0000 0000 232e dfbf
000000a0: 0000 0080 2358 e7bf 0000 0040 75ac e93f
000000b0: 0000 0080 5d13 e93f 0000 00c0 fa6e e8bf
000000c0: 5d97 3fe9 3f4c b5bf 4c23 b0a5 2b88 efbf
000000d0: 3dac b945 2e2c eabf d997 2485 0945 c83f
000000e0: 60e0 e443 bbf4 d03f ed92 776a 230c cb3f
000000f0: 0000 0080 256b d1bf 0000 00c0 c185 ed3f
00000100: 0000 0000 1a4d c23f 0000 0080 f9e1 e2bf
00000110: 0000 0000 7cfc acbf 0000 0000 14bd ce3f

conv1.fc_pool.bias f8 [6]
0.1427389342989836 0.3398573064219865 0.044629573822021484 -0.12875056266784668 0.08899618727583804 -0.11070853471755981
00000000: 220b 57f7 4445 c23f bce6 18dc 38c0 d53f
00000010: 0000 0000 b0d9 a63f 0000 0000 e67a c0bf
00000020: b183 d141 74c8 b63f 0000 0000 6557 bcbf

conv1.fc_self.weight f8 [32, 6]
0.20139341902259703 -0.3981639096973495 0.20256397663202003 -0.2868730381688356 -0.4527765277321417 -0.28440290889801023 0.5419585221809362 0.48041314551965375
0.5032127791683038 0.3298726540763366 0.42454309412352487 -0.07523829803150171 -0.3087114795960255 0.27881082716736777 -0.2912422415605532 -0.37919768019902544
-0.1761513581023213 0.12541987790571235 0.28974475025284535 -0.21501059987590798 -0.33279232868541575 0.07444358261744882 -0.33163237571886384 -0.37057314565359056
0.29289449925434974 -0.09440504210525771 0.5135568365912235 0.5466655548408346 0.168127575677802 0.19344237942912804 0.13082064862730128 0.008662620358498086
-0.03051675485565689 0.012278166774767512 0.20390724866115895 0.5137869497655474 -0.1426279612474396 -0.23519506830867756 -0.13289897248747554 -0.26884856295019344
0.08584614190971773 0.4066403480317909 0.44292745743621187 0.2590052263652429 -0.4047216312589423 -0.2972744513380876 -0.1254560351256719 -0.10528096849534738
0.04624054063817646 -0.5158665156125986 0.1749708750203074 -0.4286651672511165 -0.3556076512809682 -0.46722210669178693 0.48986304274788417 -0.5323212983270225
0.4225056978060761 -0.01910930606864385 -0.06315754383105708 0.35518206648113265 -0.04870976454563401 0.35340221460318105 0.4089150866583632 -0.48532929888343807
0.21430431840597403 0.10463243155827438 0.12199621193930493 0.07997220808080932 0.15073120930457834 -0.2696858828296644 -0.07874823168405173 0.5351859497867644
0.3774922237310112 -0.021098299243043066 -0.5283843478145126 0.024679787566834296 -0.38275903348241924 0.45679794223749115 -0.3413781172096562 -0.04054238480651197
-0.12434345894368026 0.1000689454210941 0.5308363881060352 0.055535199758122544 0.3260991346410578 0.4358719918684762 0.4475831598568882 -0.19580057391720765
-0.12679223254896171 0.2697749206484228 -0.15331733624971602 0.26313299119565453 -0.12275241940679696 -0.3811109514493139 0.22878475873505338 0.08630331278270333
0.2468817002471046 0.5581551564559768 0.38350063701443377 0.5315753970580881 0.03137263636201725 -0.48563070210847115 -0.3940892676870698 -0.3479810284623778
-0.4921380416910036 -0.28092718427884233 -0.5222663296099563 -0.5277725571570249 -0.33568802597028974 -0.553950366060664 -0.34478758375846125 0.21439635459580977
0.46865698902328423 -0.16725459888147287 -0.16236731275774793 0.2988151325809336 -0.28057058824283077 -0.2666505693555929 0.34928087161168786 -0.48017678925732116
0.06876201768708892 0.49642836584636624 0.09632805335610178 0.1528272484870223 -0.3272613193150421 -0.007707797798967361 0.03092450930506538 0.13792220902973462
0.2182737118227788 0.48828450748965924 -0.4288899922098338 0.01689359708633848 -0.27595892081349405 -0.44368453485912224 -0.042399444760035244 -0.49137205878207274
0.3949868498306208 0.06897872100626336 -0.3028844870628197 0.2936595896860364 -0.5319057707161459 -0.2173954847856121 -0.10936312353914651 -0.47736803491953966
-0.3531121529647835 -0.08889580902534887 0.43039341570994444 0.5459878598868514 0.35076290912714886 -0.34994449499165003 -0.3676867324952783 0.49040061642947286
0.19864932278756248 0.01488114788168741 0.07611815941330746 -0.451458560860814 -0.19232264883040426 0.5388947572427195 -0.13659465481679653 -0.029407785495839164
-0.4599139500670193 -0.3049807469228162 -0.011561140288059355 -0.34655148681404735 -0.06337267168356654 0.23128314192288948 -0.5500148947666659 0.15714034035301075
-0.3716070027633421 -0.2742871090596979 0.21567632495122466 0.44677691908716743 -0.15355854547099798 -0.23064101470959145 -0.5157704816931072 -0.29440993371684476
-0.4948149657138146 -0.1321750587938741 0.1079515115039827 -0.527438698040012 0.48642400463747704 0.35229574166094596 -0.5553338575212826 -0.2715965235198386
0.19266490668393257 -0.1006830152611553 -0.06128832659553717 -0.25374320657443405 0.4513326521780079 -0.31416992607894295 0.4660224065309302 0.03629093874716516
00000000: 7174 2a72 42c7 c93f 4c3f a67a 847b d9bf
00000010: dab9 7dcb 9ded c93f 0884 42bb 205c d2bf
00000020: 1262 c066 4afa dcbf 90ab 2642 a833 d2bf
00000030: 92c7 1166 b957 e13f 62d3 24c7 16bf de3f
00000040: d9a0 aeaf 511a e03f c890 4631 a21c d53f
00000050: 4034 40cc b62b db3f 57b6 732d d142 b3bf
00000060: dcf0 30cb edc1 d3bf 6517 1d5e 09d8 d13f
00000070: fdd7 ad7f b6a3 d2bf de20 cb58 c644 d8bf
00000080: a804 19b1 208c c6bf dac9 ef30 c20d c03f
00000090: 9f83 a190 2d8b d23f b053 61a3 7785 cbbf
000000a0: 1811 0432 784c d5bf 3430 bd10 bc0e b33f
000000b0: ae77 0000 7739 d5bf bce9 566d 78b7 d7bf
000000c0: 5672 de91 c8be d23f ea69 6bc8 ed2a b8bf
000000d0: 1a7d 39bf 0e6f e03f b883 fcc2 487e e13f
000000e0: 30c4 8b53 3485 c53f d97d a74a b8c2 c83f
000000f0: 4575 bf23 bbbe c03f 076c 1939 b5bd 813f
00000100: 4923 57c0 c83f 9fbf e309 05a6 4b25 893f
00000110: d460 35fa a119 ca3f 0e59 4b54 f170 e03f
00000120: b4c5 860e a241 c2bf 157b 483b df1a cebf
00000130: 25bb 4062 d502 c1bf c2a6 5c9a d034 d1bf
00000140: 7871 fd43 03fa b53f 59f5 013d 6506 da3f
00000150: f417 0c68 ec58 dc3f bcd5 2ea8 8a93 d03f
00000160: 5f6b 8f8e f5e6 d9bf 50bd 9b6b 8b06 d3bf
00000170: dfac f97f f10e c0bf 3627 948c b1f3 babf
00000180: b9a5 9413 d7ac a73f ee0a b57e fa81 e0bf
00000190: 107c fb14 7265 c63f 5ec9 9106 406f dbbf
000001a0: 6762 1d98 46c2 d6bf 9767 0d8d f7e6 ddbf
000001b0: f2c1 0785 ea59 df3f 1aec e8ac c608 e1bf
000001c0: 2fd9 9c56 550a db3f 4dd1 74d2 6391 93bf
000001d0: 0705 40c1 172b b0bf df60 ea8f 4dbb d63f
000001e0: be4f 707b 7cf0 a8bf 297f 8352 249e d63f
000001f0: aa79 022f aa2b da3f afad 9f9e a20f dfbf
00000200: 46fd 78eb 526e cb3f 97cc a4e7 30c9 ba3f
00000210: 1ce4 83cc 243b bf3f 8ac5 4b02 0f79 b43f
00000220: 9a8f 3907 294b c33f 1f90 bc93 8842 d1bf
00000230: ce69 b317 d828 b4bf 7a9c f348 3e20 e13f
00000240: 08d1 da24 d528 d83f fe17 00e5 ca9a 95bf
00000250: a39c b24a 86e8 e0bf 7c1a e381 a845 993f
00000260: 4a8e c3be 1f7f d8bf 5a91 b26f 2d3c dd3f
00000270: e512 3f9a 23d9 d5bf d20e b1b1 f8c1 a4bf
00000280: d076 a211 f9d4 bfbf 5ec6 ed4f 1e9e b93f
00000290: 6026 ce97 9cfc e03f 58d6 7915 1c6f ac3f
000002a0: 3462 a2e7 cede d43f a551 94a3 53e5 db3f
000002b0: dbd7 74d6 33a5 dc3f 8d97 c142 fe0f c9bf
000002c0: 8aa1 1756 ba3a c0bf 78d2 5d07 fe43 d13f
000002d0: 511a 8d08 e79f c3bf 87c6 ebc1 2bd7 d03f
000002e0: da68 dbda b36c bfbf e5d2 2730 1f64 d8bf
000002f0: 1a8f 4ba8 d148 cd3f e12b f051 f917 b63f
00000300: 7666 45ce d199 cf3f 544f e233 68dc e13f
00000310: df37 7e41 468b d83f 6220 3768 aa02 e13f
00000320: 5f0d 54fe 1210 a03f 5c52 dfcb 9214 dfbf
00000330: 5dea 1a31 c238 d9bf 7af5 3738 5245 d6bf
00000340: c68a 8b8e 307f dfbf 543d 4203 b6fa d1bf
00000350: 4841 afe0 67b6 e0bf 1ee7 1646 83e3 e0bf
00000360: 59e0 4ca1 e97b d5bf 18cf 3a1e f6b9 e1bf
00000370: 0fce 13f1 ff10 d6bf 8d70 aff9 5671 cb3f
00000380: c665 39e2 79fe dd3f 5898 2644 9968 c5bf
00000390: 73f1 1dbd 73c8 c4bf 780a 7f81 c91f d33f
000003a0: 763c 2e57 def4 d1bf 2be4 b58c cd10 d1bf
000003b0: 5e32 2c28 9e5a d63f 8324 8a6d 37bb debf
000003c0: 124b 2c39 639a b13f bd7a 077b 7bc5 df3f
000003d0: 940f da8e f4a8 b83f 1f3f 18e1 d78f c33f
000003e0: 020d ed75 d9f1 d4bf 892c 8837 3692 7fbf
000003f0: f8be 70b0 acaa 9f3f 645f 9658 6fa7 c13f
00000400: 8d7c ed9a 64f0 cb3f 7ef0 b3a9 0d40 df3f
00000410: 1ade 8702 ef72 dbbf 5291 fd1b 8e4c 913f
00000420: 00bd fb9a 4fa9 d1bf 6b7f bdd1 5365 dcbf
00000430: 55cf 3949 61b5 a5bf c1c7 a8ca a372 dfbf
00000440: 58d8 97ec 7647 d93f d180 d7e6 96a8 b13f
00000450: 8aa2 999d 7562 d3bf 79ee 7697 51cb d23f
00000460: d6f1 3840 5f05 e1bf f8e3 b980 9dd3 cbbf
00000470: dc31 fdbe 38ff bbbf 43a7 88a8 328d debf
00000480: 0273 33b7 6399 d6bf ffec 8330 e0c1 b6bf
00000490: 13d4 38d3 908b db3f 0d44 4788 bb78 e13f
000004a0: 8b75 d645 e672 d63f 3ee1 5998 7d65 d6bf
000004b0: 6a61 cfee 2d88 d7bf 4e2e 6044 b962 df3f
000004c0: 5e60 5f4c 576d c93f 558e d4db 017a 8e3f
000004d0: b8d6 4fcd 7a7c b33f f95e 9972 b2e4 dcbf
000004e0: dbda 804f 079e c8bf a3fc ca37 a03e e13f
000004f0: f38e 9f03 ef7b c1bf 2f45 cf13 131d 9ebf
00000500: 04c5 a0eb 3a6f ddbf 8a5c 7cf7 cd84 d3bf
00000510: 1291 88fb 5dad 87bf ccc6 8f49 e62d d6bf
00000520: f14f 5700 3139 b0bf 5564 569d af9a cd3f
00000530: 26be 2ad6 b899 e1bf 2168 59b7 2c1d c43f
00000540: 1952 f5bc 68c8 d7bf e80c c884 eb8d d1bf
00000550: ebee 1725 489b cb3f c691 0538 fe97 dc3f
00000560: afdd 6871 cea7 c3bf 29a0 a50f a585 cdbf
00000570: 66a6 e318 3181 e0bf aa9b 3bc3 9cd7 d2bf
00000580: 01fb d363 0cab dfbf a6eb 6ec1 1ceb c0bf
00000590: a59f 76d3 b5a2 bb3f e340 d71e c7e0 e0bf
000005a0: 7811 fa25 9221 df3f 830b 3d70 038c d63f
000005b0: 394b 8d82 4bc5 e1bf 6d66 8e62 d661 d1bf
000005c0: 51ae a560 3ea9 c83f 5030 cfb1 5cc6 b9bf
000005d0: cf73 b5fc 2e61 afbf 8070 7425 543d d0bf
000005e0: d82c 2e59 a2e2 dc3f bf54 792d 5c1b d4bf
000005f0: 5c3a d0a4 4fd3 dd3f 50d4 1ed6 b994 a23f

conv1.fc_neigh.weight f8 [32, 6]
0.11008186896333978 0.4127063735305937 -0.09259027242660522 -0.31994330883026123 -0.09058162513457456 0.4557726979255676 -0.4169475308735067 0.12774776337704524
-0.5522810816764832 0.29463231563568115 0.20757455307525954 0.023822367191314697 0.23620207961979164 -0.0103261639718037 0.3109574317932129 -0.4448522925376892
-0.08794802783358607 0.249289870262146 0.5613669785763549 0.3066865144282775 -0.4086367189884186 0.43219512701034546 -0.12720631979097452 -0.11998474597930908
-0.5108492160530017 -0.08897630832877174 0.39748328924179077 0.07836121320724487 -0.3274096134663047 0.17297548055648804 -0.180428257604255 0.5185255641308668
-0.4877483546733856 -0.1775067150592804 -0.5465322534080204 -0.2213134467601776 0.1858009143578373 0.5863878211262378 0.09437769651412964 0.5509138703346252
0.12023028574187151 0.3245471715927124 0.44065383709443706 0.4662103011104029 -0.31453758478164673 0.516652524471283 0.3225934484492303 -0.26275670528411865
-0.26813935387663607 -0.4711770735883672 0.14112693071365356 -0.4554893374443054 0.23741350702164124 0.17746299505233765 -0.4875390857382882 0.1519354986420664
-0.04570382833480835 0.25670939683914185 0.32374422592987157 -0.5586612820625305 0.522045698065762 0.47808057632497947 0.22359132766723633 -0.5136017203330994
-0.19012979053539178 -0.1628585159778595 -0.14543449102816838 0.3434426350105383 0.20430898666381836 0.4451661705970764 -0.2087768920032878 0.18911898136138916
0.19997615243119984 -0.4674491468959914 -0.5451040267944336 -0.29159048199653625 0.3846618567348244 -0.5290546417236328 -0.4894203410645206 0.30676431761918843
0.30318909883499146 0.46214479207992554 -0.4248967818191835 -0.4112921357154846 0.28378620534540855 0.47707904033762666 0.336237370967865 0.0880308747291565
0.17796256358098972 0.5333631634712219 -0.3625886105263607 -0.2551739592612941 0.3930664658546448 -0.38450944423675537 -0.309895814734335 0.41021955013275146
0.1788868894409206 0.17274992930754296 -0.23817774653434753 -0.00775521993637085 0.5179610481353613 -0.3372945487499237 -0.000409271851317735 0.2656905861802119
-0.3879467248916626 0.5457542538642883 -0.2905803099433847 -0.13494479656219482 -0.15212977138352718 -0.3659412133270846 -0.5514230728149414 0.3168572187423706
0.14911207835104792 -0.5263242125511169 -0.36017987417153846 0.5543092888978145 0.21479755640029907 0.22548002004623413 -0.3312542915380793 -0.24635732173919678
-0.08472521099844939 -0.10264446890903128 -0.3850763440132141 0.04629635810852051 0.05600619424476488 -0.07115486264228821 0.07791949847022768 -0.22269724073759803
0.1462489366531372 0.2119346261024475 -0.2959435883940808 -0.5572192668914795 0.28750668262525475 0.14444671363011313 -0.2858017385005951 0.5415536761283875
-0.2667349339643497 0.37973690032958984 0.28524700209071707 -0.4710622518995227 0.3624257445335388 -0.5166991353034973 -0.3110803993005432 -0.09368568658828735
-0.3829566073664743 0.5404983780409087 -0.11271601915359497 0.22320133447647095 -0.5112210203087082 0.32349658012390137 -0.17458186239315643 -0.427482200886246
0.08217018842697144 0.2722439765930176 0.4864454470018559 -0.3432358205318451 -0.269555640020319 0.08628952801533182 0.15243566036224365 0.2160547375679016
0.3231808378072688 -0.12742456793785095 0.306711640961358 0.4183769097947138 -0.14679381251335144 0.39980441331863403 0.2585121569591909 0.4956708550453186
-0.3193256939373832 -0.2777298854247612 -0.16248202323913574 0.02850574254989624 0.33735433822914557 -0.3207970857620239 0.29550791231068746 -0.17996938712589283
0.33948010206222534 -0.026679933071136475 -0.47036805620687877 -0.30921146273612976 -0.4113197816912093 0.2564860223679795 -0.3768155574798584 -0.04682081937789917
0.11699977536526524 -0.30817118287086487 0.16214167785287154 -0.5484264205149257 -0.4020810127258301 -0.5091973543167114 -0.16991764324366387 -0.2047174572944641
00000000: 8d81 144b 532e bc3f ca89 4afe c769 da3f
00000010: 0000 0000 ffb3 b7bf 0000 0080 f379 d4bf
00000020: bf4f 927d 5b30 b7bf 0000 0040 612b dd3f
00000030: 75fa 4fb2 44af dabf 1ab8 ebe8 095a c03f
00000040: 0000 0060 49ac e1bf 0000 0080 41db d23f
00000050: c153 788e cd91 ca3f 0000 0000 e464 983f
00000060: af6a 9ba7 de3b ce3f e48e 6a44 e225 85bf
00000070: 0000 0000 bae6 d33f 0000 00c0 7578 dcbf
00000080: c4fe 4a0f c383 b6bf 0000 0000 bbe8 cf3f
00000090: da45 c1e1 b7f6 e13f ebfe 6579 c0a0 d33f
000000a0: 0000 00a0 1a27 dabf 0000 00c0 15a9 db3f
000000b0: 6862 acf3 4b48 c0bf 0000 0000 52b7 bebf
000000c0: f150 8474 e058 e0bf 2c11 64be 26c7 b6bf
000000d0: 0000 00c0 5d70 d93f 0000 0000 7b0f b43f
000000e0: 40f6 8e73 47f4 d4bf 0000 0080 0f24 c63f
000000f0: f59e d7ec 4518 c7bf f09f 82ec c297 e03f
00000100: 0000 00e0 4437 dfbf 0000 0040 8ab8 c6bf
00000110: 9c17 5335 317d e1bf 0000 00c0 ff53 ccbf
00000120: 6ced 5d09 53c8 c73f 0351 5064 b0c3 e23f
00000130: 0000 0000 2329 b83f 0000 0020 16a1 e13f
00000140: cd04 4079 69c7 be3f 0000 0080 61c5 d43f
00000150: 785c cb26 ac33 dc3f a5f5 14bb 63d6 dd3f
00000160: 0000 0040 6221 d4bf 0000 00e0 6a88 e03f
00000170: 5492 bffd 5ea5 d43f 0000 0080 01d1 d0bf
00000180: 1fed eaf6 3129 d1bf 2df8 6be2 c327 debf
00000190: 0000 0080 7210 c23f 0000 00c0 bc26 ddbf
000001a0: d1af 24d8 9063 ce3f 0000 0080 1bb7 c63f
000001b0: cc21 3123 d733 dfbf c672 e256 9f72 c33f
000001c0: 0000 0000 7e66 a7bf 0000 0040 ed6d d03f
000001d0: fdce a8b3 39b8 d43f 0000 00a0 8de0 e1bf
000001e0: d0b7 062e 99b4 e03f a6ca 0a46 df98 de3f
000001f0: 0000 0000 a49e cc3f 0000 00e0 6c6f e0bf
00000200: a723 2c48 2c56 c8bf 0000 0040 8cd8 c4bf
00000210: e793 56ef 989d c2bf 6607 5bd1 f6fa d53f
00000220: 0000 0000 cc26 ca3f 0000 0040 9a7d dc3f
00000230: 4a46 a881 33b9 cabf 0000 0000 0d35 c83f
00000240: 4901 568d d198 c93f 4c87 9dd3 afea ddbf
00000250: 0000 0000 7e71 e1bf 0000 0020 6ba9 d2bf
00000260: 1976 acc3 4c9e d83f 0000 0000 04ee e0bf
00000270: 50a2 b7b1 a952 dfbf 5644 f0cd 06a2 d33f
00000280: 0000 0040 7367 d33f 0000 00c0 c793 dd3f
00000290: d7b2 8545 8231 dbbf 0000 0040 9c52 dabf
000002a0: 14ed c09d 8d29 d23f e5db f686 7688 de3f
000002b0: 0000 00c0 e984 d53f 0000 0000 3189 b63f
000002c0: dc0f 3f2f 7ac7 c63f 0000 00a0 4f11 e13f
000002d0: 2038 07dc a634 d7bf a95b 7428 c554 d0bf
000002e0: 0000 0040 0028 d93f 0000 0080 cd9b d8bf
000002f0: 2de1 5c41 55d5 d3bf 0000 0080 0941 da3f
00000300: 697c eafd c3e5 c63f 1090 6170 ab1c c63f
00000310: 0000 00c0 9b7c cebf 0000 0000 f0c3 7fbf
00000320: f9fb 4a0c 2393 e03f 0000 00e0 3b96 d5bf
00000330: 8dfc 7137 71d2 3abf ecf0 9f16 1301 d13f
00000340: 0000 0080 1ed4 d8bf 0000 00a0 d176 e13f
00000350: 5a60 0428 de98 d2bf 0000 0000 df45 c1bf
00000360: de8b 6b04 fd78 c3bf 96e5 dfb1 946b d7bf
00000370: 0000 0000 42a5 e1bf 0000 0080 6347 d43f
00000380: 5d69 fac5 1a16 c33f 0000 00e0 a5d7 e0bf
00000390: 33a0 0fe3 2f0d d7bf 94ec 75d5 e6bc e13f
000003a0: 0000 0080 7c7e cb3f 0000 0080 87dc cc3f
000003b0: 6e34 3433 4533 d5bf 0000 0000 a388 cfbf
000003c0: f591 622a 8db0 b5bf 3c5f 146d e846 babf
000003d0: 0000 0040 17a5 d8bf 0000 0000 28b4 a73f
000003e0: 5733 4f09 d8ac ac3f 0000 0080 3437 b2bf
000003f0: 557d a641 88f2 b33f 614f f0da 5781 ccbf
00000400: 0000 0000 49b8 c23f 0000 0080 ac20 cb3f
00000410: f742 6760 bdf0 d2bf 0000 0080 bdd4 e1bf
00000420: 6371 d06d 8266 d23f 722b 87db 3a7d c23f
00000430: 0000 0060 934a d2bf 0000 0060 6854 e13f
00000440: 6df7 8466 2f12 d1bf 0000 0000 9c4d d83f
00000450: 42bf 50a4 7c41 d23f d577 9249 e225 debf
00000460: 0000 00c0 fb31 d73f 0000 00a0 cc88 e0bf
00000470: 7e09 5bc3 bde8 d3bf 0000 0000 c9fb b7bf
00000480: 8c45 1b6e 5c82 d8bf 8441 2741 c34b e13f
00000490: 0000 0000 f5da bcbf 0000 0080 dc91 cc3f
000004a0: ee1d 682f ec5b e0bf 0000 0000 2bb4 d43f
000004b0: 5408 bace b258 c6bf 046d 1b4e de5b dbbf
000004c0: 0000 0000 1b09 b53f 0000 0000 726c d13f
000004d0: 024f 8a15 ec21 df3f 0000 0060 93f7 d5bf
000004e0: 51bc 954c 6640 d1bf 0629 d00c 1217 b63f
000004f0: 0000 0000 0383 c33f 0000 0080 aea7 cb3f
00000500: d2de 44ae feae d43f 0000 00c0 724f c0bf
00000510: 55d1 cedc 29a1 d33f d311 3ef2 afc6 da3f
00000520: 0000 00c0 23ca c2bf 0000 0040 6596 d93f
00000530: 6d85 f092 768b d03f 0000 0040 12b9 df3f
00000540: c0f2 0e09 d56f d4bf f45a c191 53c6 d1bf
00000550: 0000 0000 36cc c4bf 0000 0000 9c30 9d3f
00000560: e1e7 76a6 3697 d53f 0000 0080 f087 d4bf
00000570: 555a c504 9ae9 d23f dc51 fea3 3c09 c7bf
00000580: 0000 00c0 0aba d53f 0000 0000 fc51 9bbf
00000590: ef76 9f9e 821a debf 0000 00e0 1eca d3bf
000005a0: 50f1 a334 1053 dabf f5e6 7c59 446a d03f
000005b0: 0000 0000 bf1d d8bf 0000 0000 e6f8 a7bf
000005c0: 044a d580 b2f3 bd3f 0000 00a0 13b9 d3bf
000005d0: da2b d9f9 0ec1 c43f 65f7 8b90 b58c e1bf
000005e0: 0000 0000 b2bb d9bf 0000 0040 584b e0bf
000005f0: ec59 5f80 dcbf c5bf 0000 0080 2e34 cabf

conv2.bias f8 [20]
-3.377940288595864e-17 -9.514004167821003e-16 -4.807352432800768e-17 2.4008225962823784e-15 3.4269418899834944e-15 -7.525815907960537e-16 -1.1141903372147155e-14 7.468836746987725e-15
2.180720881650437e-16 1.8656829011386197e-16 7.134744184345014e-15 -2.4820260863950277e-16 9.888671912566812e-16 -4.841051604725922e-15 -1.9720123971278543e-14 -8.91928675014752e-15
8.631637071765402e-16 2.631679596465374e-15 -9.013102764132705e-16 -8.769374115757953e-16
00000000: 545c 8fc2 f578 83bc c4f5 285c 8f23 d1bc
00000010: a966 6666 66b6 8bbc 4ab8 1e85 eb9f e53c
00000020: 0fd7 a370 fddd ee3c aa70 3d0a 571d cbbc
00000030: 85eb 51b8 de16 09bd 275c 8fc2 7dd1 003d
00000040: 200a d7a3 706d af3c f27a 14ae 27e3 aa3c
00000050: 6966 6666 e610 003d e07a 14ae 87e2 b1bc
00000060: 1d85 eb51 58d0 d13c d8a3 703d 5acd f5bc
00000070: 2185 eb51 f033 16bd 6366 6666 9e15 04bd
00000080: e77a 14ae 4719 cf3c 08d7 a370 3db4 e73c
00000090: c7f5 285c 8f3c d0bc b61e 85eb 5198 cfbc

conv2.fc_pool.weight f8 [32, 32]
0.21358699854067895 -0.15681065235957495 0.3250758358552712 0.07301276909250642 0.13155843419506655 -0.07978236387196351 -0.05899586351543174 -0.1428294140846964
-0.37488217845968175 0.27074058587088473 -0.28233598986206365 0.24613033363016512 -0.14579187201701754 0.26961969142720627 0.36436107917602356 -0.26482438689013826
0.3514844876891166 0.0025033286316593307 -0.3306700670832456 0.15856396281818155 0.2451706138918376 0.381638718011173 -0.4113054228081355 0.39106357783738677
0.29769650638492706 0.4260547409686105 0.23398749862286483 -0.21076402453151546 0.32850923056586134 0.39390415084185193 -0.16544326351501393 -0.07071305937619035
0.31967071977690104 0.3485564671230339 0.2875467047382571 0.3181860720148002 -0.22249349991866968 -0.07118745558658984 -0.17229939140330264 0.21818918368836768
0.10786978887600995 -0.33431702995814033 -0.06109466901359318 -0.35032956343239735 -0.407342070135271 0.3943106833495965 -0.22562894849049353 0.19336871830664176
-0.11202362417839606 -0.10564121169164249 -0.00016392837175036547 0.32538155855587464 -0.059941431687939375 0.3582546875270524 0.2578373685058289 0.2970571045449091
-0.4100248507615673 -0.20250047020609058 -0.3656925538979538 -0.1031982889303256 -0.08973087709355157 0.08419082692135967 0.39042720506124845 0.19451585898405624
-0.30131518840789795 -0.27156102657318115 0.32697024941444397 0.04310384392738342 0.12232819199562073 -0.22648091614246368 -0.052805542945861816 0.1232808530330658
-0.28415387868881226 0.282610684633255 0.2157892882823944 -0.25252097845077515 -0.17757025361061096 -0.10180172324180603 0.06738808751106262 -0.1588377058506012
0.4142291247844696 -0.4170818328857422 -0.24473854899406433 -0.26282942295074463 0.11707815527915955 0.06144753098487854 -0.1233896017074585 0.369558185338974
-0.37379956245422363 0.15261539816856384 -0.23826593160629272 -0.09860071539878845 -0.4169914126396179 -0.3232470154762268 -0.3673892915248871 0.18891212344169617
-0.1579730050699912 0.22644824852751436 -0.23272457940240718 -0.10244413390744526 0.052377596796427436 0.3560785990314768 -0.12283320217164174 0.2516623092010274
0.11955790477808198 0.26338125943923146 0.26643322155542903 0.17191428500915767 -0.13053152892462747 -0.12163111900162499 0.16329582682603422 0.23601867367026572
-0.02504615521631283 0.22768866161175624 -0.2605154322023341 0.2442112361940509 -0.0531066145193067 -0.2979518641298668 -0.2145669943634006 -0.3306033531509331
0.08230828887372509 -0.2567754550869703 -0.11736059502189272 -0.02612536584471227 -0.2641797281491326 0.01747341047526955 -0.05350947986546428 0.13711822230757859
0.31281164288520813 -0.2613964080810547 0.23674806952476501 -0.009174168109893799 -0.2474905252456665 -0.19637726247310638 0.11021813750267029 0.0901590883731842
-0.013986408710479736 -0.21557343006134033 0.21836641430854797 0.06424647569656372 -0.42094507813453674 -0.07652491331100464 -0.11748173832893372 -0.1847706437110901
-0.24019116163253784 -0.3512868881225586 0.4264759123325348 -0.3955201208591461 0.40251877903938293 -0.34039294719696045 -0.10505646467208862 -0.17739087343215942
-0.23177002370357513 0.15395137667655945 0.25097188353538513 -0.2844467759132385 -0.20167550444602966 0.2210213840007782 -0.05234086513519287 0.1054597795009613
0.22412231797114196 -0.16002531563764344 -0.24156911956870833 0.1571670667430416 -0.15854426988448408 -0.290034542841204 -0.2215112077031203 -0.2032621174744543
0.43117055590573866 0.08336321580675485 0.18546434865435726 0.05681571779671922 -0.29190746442165005 0.31296710162050967 -0.06785413107595606 -0.11211025424428239
0.35454311086381235 -0.22419401414885426 0.08793081811514684 -0.3701549138142234 0.22189671064533392 0.17200887004616283 -0.357713302008088 0.24168495600925655
0.046789930051492644 -0.2235661425812811 0.36876201894957483 0.18295765643127063 0.1521774701478181 -0.16200736487963213 -0.23764778573691142 -0.2329659040562441
0.1626843512058258 0.11664769053459167 -0.25915712118148804 0.39402076601982117 0.25228074193000793 -0.16532757878303528 0.22403177618980408 -0.18355336785316467
0.1358914077281952 0.3604106605052948 -0.3830135762691498 -0.21529696881771088 -0.02447199821472168 0.0645732581615448 -0.35609832406044006 -0.28487974405288696
-0.041473329067230225 -0.06243085861206055 0.09339848160743713 0.05502203106880188 0.08882907032966614 0.02870592474937439 0.04976925253868103 -0.024992942810058594
0.15550467371940613 0.29552963376045227 -0.21609510481357574 -0.22432278096675873 0.19005581736564636 -0.3131260573863983 0.2813967764377594 0.20004263520240784
0.06262749433517456 -0.18798847496509552 0.012984126806259155 -0.3423630893230438 -0.3895736038684845 0.4077695906162262 -0.3883804678916931 -0.35929399728775024
-0.16820260882377625 0.024316847324371338 0.09917464852333069 -0.2133810669183731 -0.0420190691947937 -0.09669595956802368 0.36231276392936707 0.3758350908756256
0.17797216773033142 -0.00266912579536438 0.3247307240962982 -0.3496076762676239 0.18092015385627747 -0.251691997051239 0.33768996596336365 -0.3827779293060303
0.16088703274726868 -0.3560158908367157 0.25272706151008606 0.07917621731758118 0.37154170870780945 -0.32658571004867554 0.278690904378891 -0.28897684812545776
00000000: 43a0 ca9a d156 cb3f 113f c617 5f12 c4bf
00000010: e0f7 ede0 0ace d43f c055 71ff f6b0 b23f
00000020: 5dbd 3022 e8d6 c03f 03ae a0f3 9d6c b4bf
00000030: 61ce cbb0 b434 aebf 4847 33f7 3b48 c2bf
00000040: ba9a 15d2 11fe d7bf 29fb 8052 d053 d13f
00000050: 183f bcf8 ca11 d2bf 5c60 bfe2 3281 cf3f
00000060: 7af8 2add 4ea9 c2bf c965 42f3 7241 d13f
00000070: 2ec3 bf21 b151 d73f db16 38fc e1f2 d0bf
00000080: bd44 ebca b87e d63f b6ed 5453 dc81 643f
00000090: e7df f8c8 b229 d5bf 7d6a 50ed d24b c43f
000000a0: 1d87 4d2c c061 cf3f e2b3 2fcd c46c d83f
000000b0: 9d37 e8fa d352 dabf 10f9 5d87 2f07 d93f
000000c0: 40a1 c3a5 750d d33f 0e05 b11a 7b44 db3f
000000d0: c407 2167 4df3 cd3f 39a2 44c8 50fa cabf
000000e0: 56ba 6d94 4b06 d53f 40f6 67c1 b935 d93f
000000f0: bcfb 11af 3e2d c5bf 6abc 6b45 401a b2bf
00000100: 778e bb2d 7c75 d43f 2093 c6c8 bf4e d63f
00000110: b318 3b4b 2a67 d23f 4029 561d 295d d43f
00000120: f293 dcc0 aa7a ccbf 3c3e a151 5739 b2bf
00000130: 6854 990d e80d c6bf 2b28 2488 9fed cb3f
00000140: 48ea 72bf 5a9d bb3f cfa0 8a41 7365 d5bf
00000150: c124 bfea cc47 afbf 15e7 70b0 cc6b d6bf
00000160: f404 6179 e411 dabf a2cb 5ce0 623c d93f
00000170: bc15 66cd 68e1 ccbf b225 9960 4ec0 c83f
00000180: 50c1 398a 94ad bcbf 8d4e 536d 4d0b bbbf
00000190: bd4c b9fd 857c 25bf f103 2e2c 0dd3 d43f
000001a0: 3adc 8cb1 a4b0 aebf 1b50 a411 a5ed d63f
000001b0: c1d4 5a4e 6880 d03f 4c26 44cd fb02 d33f
000001c0: 975d 24df d83d dabf 1eda 7a10 89eb c9bf
000001d0: b779 d8bd 8167 d7bf f27a f5fb 336b babf
000001e0: 2ae6 8e4e 9af8 b6bf 951c 40b0 878d b53f
000001f0: 5b3b 4d63 c2fc d83f 3de7 714a e5e5 c83f
00000200: 0000 0080 bf48 d3bf 0000 0080 4161 d1bf
00000210: 0000 00a0 14ed d43f 0000 0000 b511 a63f
00000220: 0000 0080 e650 bf3f 0000 00a0 53fd ccbf
00000230: 0000 0000 5409 abbf 0000 0080 558f bf3f
00000240: 0000 00c0 932f d2bf 0000 0020 4b16 d23f
00000250: 0000 00c0 fb9e cb3f 0000 00c0 4d29 d0bf
00000260: 0000 0040 9fba c6bf 0000 0080 ad0f babf
00000270: 0000 0080 5840 b13f 0000 0040 cb54 c4bf
00000280: 0000 00e0 ba82 da3f 0000 0000 78b1 dabf
00000290: 0000 00c0 9753 cfbf 0000 0080 32d2 d0bf
000002a0: 0000 0080 d5f8 bd3f 0000 0000 0d76 af3f
000002b0: 0000 0000 7696 bfbf 0000 0060 d7a6 d73f
000002c0: 0000 0000 55ec d7bf 0000 00c0 e688 c33f
000002d0: 0000 0080 7f7f cebf 0000 0080 e53d b9bf
000002e0: 0000 00c0 fcaf dabf 0000 0040 14b0 d4bf
000002f0: 0000 0060 4e83 d7bf 0000 00c0 452e c83f
00000300: 0f96 369d 7538 c4bf 79c1 d496 41fc cc3f
00000310: e31c c144 ebc9 cdbf 7bad cc5c c739 babf
00000320: 1645 9182 3cd1 aa3f fd52 69e4 fdc9 d63f
00000330: 29ae 302a ff71 bfbf 46df e93a 3c1b d03f
00000340: 7409 00cb 589b be3f 3bee ea11 3ddb d03f
00000350: dc80 49ed 3d0d d13f de2e ea8b 4901 c63f
00000360: eb00 ead3 41b5 c0bf 6cb1 498e 3723 bfbf
00000370: a642 e5ad e0e6 c43f fb5c 5422 dc35 ce3f
00000380: 84ac 2d06 b3a5 99bf c370 a5ed e624 cd3f
00000390: 9e63 5aeb 48ac d0bf 7f74 6254 5042 cf3f
000003a0: 4797 1f49 ca30 abbf b314 0eb2 a411 d3bf
000003b0: d2c0 cb67 ee76 cbbf ebcb 6ef7 9a28 d5bf
000003c0: b701 e7f0 2712 b53f 44e6 8051 026f d0bf
000003d0: fc47 750d 580b bebf 04a7 989f 9bc0 9abf
000003e0: 22ab 2a17 52e8 d0bf ebd8 29ba 8ce4 913f
000003f0: c0a5 1834 9865 abbf 1e94 3f04 178d c13f
00000400: 0000 0020 1b05 d43f 0000 0000 b8ba d0bf
00000410: 0000 00c0 c24d ce3f 0000 0000 e8c9 82bf
00000420: 0000 0000 c5ad cfbf 0000 00e0 e322 c9bf
00000430: 0000 0080 4137 bc3f 0000 0080 aa14 b73f
00000440: 0000 0000 e8a4 8cbf 0000 0000 e997 cbbf
00000450: 0000 0040 6ef3 cb3f 0000 0000 7572 b03f
00000460: 0000 00a0 c3f0 dabf 0000 0000 2397 b3bf
00000470: 0000 0080 4813 bebf 0000 0080 90a6 c7bf
00000480: 0000 0080 95be cebf 0000 0000 7c7b d6bf
00000490: 0000 00a0 614b db3f 0000 00a0 3350 d9bf
000004a0: 0000 0020 dec2 d93f 0000 0080 ffc8 d5bf
000004b0: 0000 0000 fbe4 babf 0000 0080 beb4 c6bf
000004c0: 0000 00e0 a3aa cdbf 0000 00c0 adb4 c33f
000004d0: 0000 0060 ec0f d03f 0000 0040 6034 d2bf
000004e0: 0000 00c0 80d0 c9bf 0000 00c0 6d4a cc3f
000004f0: 0000 0000 6ccc aabf 0000 0080 69ff ba3f
00000500: b6b0 fe44 0ab0 cc3f 880e 99a4 b57b c4bf
00000510: edb3 22a6 bceb cebf e0b5 d5e9 0c1e c43f
00000520: 8f9f 0fbb 2d4b c4bf 6aa6 0d0b ed8f d2bf
00000530: 8924 64b0 7a5a ccbf 53c4 8839 7e04 cabf
00000540: 1940 2763 4c98 db3f b653 94ad 4a57 b53f
00000550: 19af 05b8 4bbd c73f 7edd ab23 f316 ad3f
00000560: a68d 49a5 9cae d2bf 9ec6 8b2a a707 d43f
00000570: 88a6 de69 e35e b1bf 1c83 86f3 41b3 bcbf
00000580: c7a8 8b96 d5b0 d63f 9e38 5db3 63b2 ccbf
00000590: e375 1d54 a282 b63f 5a4a 523c 9eb0 d7bf
000005a0: 45e5 a785 1c67 cc3f f82e bcfb 6204 c63f
000005b0: 9b02 5e55 c6e4 d6bf b45a ff5a 88ef ce3f
000005c0: 3be2 b486 d9f4 a73f a692 70bb d09d ccbf
000005d0: 844d d902 cc99 d73f 0d6a 760f 286b c73f
000005e0: d387 bc24 8d7a c33f 9a40 ef46 a8bc c4bf
000005f0: 0e7a da1d 3e6b cebf 1d98 80a5 d3d1 cdbf
00000600: 0000 0040 d7d2 c43f 0000 0080 9fdc bd3f
00000610: 0000 00c0 0796 d0bf 0000 00e0 a237 d93f
00000620: 0000 0020 5e25 d03f 0000 0040 7429 c5bf
00000630: 0000 00c0 12ad cc3f 0000 0040 ad7e c7bf
00000640: 0000 00c0 e364 c13f 0000 00e0 f710 d73f
00000650: 0000 0060 4b83 d8bf 0000 00e0 d98e cbbf
00000660: 0000 0000 300f 99bf 0000 0080 df87 b03f
00000670: 0000 00a0 50ca d6bf 0000 0040 783b d2bf
00000680: 0000 0000 fe3b a5bf 0000 0000 f0f6 afbf
00000690: 0000 0080 f6e8 b73f 0000 0000 d92b ac3f
000006a0: 0000 0080 80bd b63f 0000 0000 1665 9d3f
000006b0: 0000 0000 5b7b a93f 0000 0000 c097 99bf
000006c0: 0000 00c0 93e7 c33f 0000 0020 f5e9 d23f
000006d0: 0000 0020 01a9 cbbf 0000 00e0 9bb6 ccbf
000006e0: 0000 00c0 bf53 c83f 0000 00e0 410a d4bf
000006f0: 0000 00a0 6702 d23f 0000 0040 ff9a c93f
00000700: 0000 0000 5b08 b03f 0000 00a0 0110 c8bf
00000710: 0000 0000 6c97 8a3f 0000 00e0 46e9 d5bf
00000720: 0000 0020 c6ee d8bf 0000 00a0 e518 da3f
00000730: 0000 00c0 39db d8bf 0000 0040 acfe d6bf
00000740: 0000 00c0 a987 c5bf 0000 0000 84e6 983f
00000750: 0000 0080 8263 b93f 0000 0020 1250 cbbf
00000760: 0000 0000 8683 a5bf 0000 0000 11c1 b8bf
00000770: 0000 00e0 2130 d73f 0000 00a0 ae0d d83f
00000780: 0000 00c0 cac7 c63f 0000 0000 90dd 65bf
00000790: 0000 0060 63c8 d43f 0000 00e0 f85f d6bf
000007a0: 0000 0040 6428 c73f 0000 00c0 b81b d0bf
000007b0: 0000 0060 b69c d53f 0000 0000 6f7f d8bf
000007c0: 0000 0040 f297 c43f 0000 00e0 f6c8 d6bf
000007d0: 0000 0020 ae2c d03f 0000 0080 e444 b43f
000007e0: 0000 00e0 56c7 d73f 0000 00c0 c7e6 d4bf
000007f0: 0000 0060 12d6 d13f 0000 00c0 987e d2bf

conv2.fc_pool.bias f8 [32]
0.07149515458589632 0.12251573160638611 0.07354341447353363 0.04789690882236764 -0.15538866817951202 0.02638638628847214 -0.12576711177825928 0.05442357063293457
0.031189411878585815 -0.003254815959058148 -0.12514003527681286 -0.10716154426336288 0.13505642842612423 0.08609361946582794 0.08922336510955899 -0.052675358951091766
-0.033611431734598414 -0.04530392587184906 0.12157693585742575 -0.0763123482465744 0.12462727427611742 0.12188641726970673 -0.1616721898317337 -0.013220530677431126
-0.07187721272331024 -0.09772610664367676 0.07279585421297628 -0.021477490663528442 0.1547694355249405 -0.12256874427255221 0.08216346929715647 -0.15383348916134246
00000000: ebd5 c4a6 814d b23f 83b4 7ee4 305d bf3f
00000010: 0000 00c0 bdd3 b23f b170 f191 f185 a83f
00000020: 0000 00a0 c6e3 c3bf 46a8 ac68 0805 9b3f
00000030: 0000 0000 2319 c0bf 0000 0000 68dd ab3f
00000040: 0000 0000 1ef0 9f3f a32b 2803 d8a9 6abf
00000050: c993 77b3 9604 c0bf 0000 0060 f06e bbbf
00000060: d935 9a6f 8749 c13f 0000 0040 3b0a b63f
00000070: 7943 2fab 57d7 b63f 0000 00c0 43f8 aabf
00000080: c9c7 2480 8435 a1bf 0000 0080 1332 a7bf
00000090: d59d 7483 aa1f bf3f 0000 00c0 3489 b3bf
000000a0: b09e 34b3 92e7 bf3f 0000 00c0 f233 bf3f
000000b0: 0000 00a0 acb1 c4bf 84a3 2997 5d13 8bbf
000000c0: 9e68 f985 8b66 b2bf 0000 0000 9404 b9bf
000000d0: cf0d 21c5 bfa2 b23f 0000 0000 32fe 95bf
000000e0: 0000 0020 7ccf c33f fc92 294c aa60 bfbf
000000f0: d1a3 8e45 aa08 b53f e91f 7dd6 d0b0 c3bf

conv2.fc_self.weight f8 [20, 32]
-0.3365447357285517 0.2901311151604512 -0.4094326678085433 0.004084118067073597 -0.3929482529904205 -0.4353295537288361 -0.0629659169638957 0.43360949622666445
0.45414816547466536 0.17259783334020218 0.37103358584120844 -0.2643560659147775 0.2704481503533597 0.29321110960841473 -0.4604029130814482 -0.36813125416606957
0.2089167038248906 0.04369571985090717 -0.32515815940067444 -0.38035818627722284 0.3471972730668416 0.05249829619268573 -0.0024234399853756603 -0.4643803536251789
0.4220783142822185 -0.3175416461082302 0.21417827358975092 -0.0593453301781688 0.015671315493707982 0.23647994562958224 -0.1297299268226345 -0.13475127662979308
0.38762621580735873 -0.3680634004540392 0.210030594756709 -0.12263035862608648 -0.16048767385262253 0.32200920454175336 0.08486488698783358 -0.4453074544285271
0.42926292895271434 -0.23808081112625087 0.4190389677833308 -0.14925168739015973 0.4683566648814929 0.14155422267801995 -0.01578765910510166 0.18330298243440443
-0.007030329876694346 -0.24152690809732758 0.26273730479496005 0.3085705651568717 -0.060181294093159345 0.4518656990445393 0.028929711324949058 -0.2541553794714285
-0.2568503124352383 0.32320651433003816 -0.19460559509583777 0.3106595152652644 -0.4666147704357646 0.008965277380512898 -0.3360667670624586 0.1703772658073193
0.388866108991612 0.18904295937658155 -0.16509158381933117 -0.4507488506156805 -0.22761026354985975 -0.28182484124638973 0.46038917635826415 -0.2564015106573088
0.18572248525703733 0.3857912795130061 0.17307841742772254 -0.4205430445601289 -0.05454764559973166 -0.14254810175588384 0.3101545157998259 -0.04506171268519011
-0.026052037047397877 0.4256255548695939 0.11431669467318732 0.22245915026968532 -0.1546461664991339 0.3141438967386159 0.06932384238483465 -0.09650905893548298
0.0906900949764259 -0.37814847776823823 0.016660402180845232 0.2205514907483006 -0.44984193113246246 -0.256384134316731 0.30320064902444355 0.010886385479493076
-0.014635916986438189 0.04903584037665261 -0.21559703688442247 0.40185941743536957 -0.04765239144295339 -0.17377477469081143 0.25401818806639115 -0.3931410138950336
-0.08863057607946223 0.04829749273200132 -0.14991546684176732 0.2615230364627908 -0.4102217126064628 -0.13853278586457163 -0.20016524311294903 0.444496067120061
0.1943119950673999 -0.35638736723042663 0.18615949099324727 -0.007397896938462891 0.4397637724073028 0.2650964611858737 -0.28293378578083234 0.4282087642225892
-0.08760262296649532 -0.10941229166355189 0.145951203200514 0.47980621482985586 0.14491766199351264 -0.4647555513006721 -0.14718901324792721 0.4472667847484952
-0.1716815053953706 -0.2311214238038388 -0.38260204070465553 -0.2675766878880878 -0.2626553960566215 0.11305855308023936 0.1926049527676559 0.45753479109409695
0.31527301448795014 0.007407605335454703 0.25776863468113725 0.2745915261131795 -0.4143039511370066 0.24223434293408683 -0.32911647281648154 0.3709625825626951
-0.21062254302895347 0.09661923911867105 -0.005092083547334197 0.2183162699705862 0.07471393988969463 -0.34847771843229264 0.1950621245327805 0.2833676801729136
-0.254817468596237 -0.31161954453024576 -0.32852621004321164 -0.23367700039125963 -0.060555013190445386 0.03454835936067224 -0.0048615363844563145 -0.12703259072322837
0.29930016915415575 0.025385185217183488 -0.2788549328361638 -0.12551742037304883 -0.2824425565494037 -0.17003961657149047 -0.4534110366507207 0.08528015808185029
-0.372216395797769 0.18567196546088383 0.3287715258141365 -0.3579080274700028 -0.25351390038292587 -0.37964319186177126 0.1284120251566869 0.0929438053859055
-0.2467959292032388 0.2918038630714323 0.1993267993954104 -0.43326094884185434 -0.026125524898640447 -0.20679698352303968 -0.08416382248409901 0.26748623561385615
-0.05154905255320428 -0.33363294265755944 0.3392528038658627 -0.43808475359581966 -0.16497932319521322 0.18534984217875242 0.4253541838363034 0.46621636304128367
-0.10959358502445156 0.16030189773800574 -0.4217486515451902 -0.0912374385788573 -0.1494333393401474 0.13721497498595012 -0.3137634890532888 0.10581175904907274
0.24818342215689398 0.3745604816872045 -0.08039562710989205 0.4396094666775137 -0.45388890324903686 -0.13619230957914788 0.1837084649912922 0.12317008939841954
0.2275550005573477 -0.3154436816680569 0.2957639133948132 -0.4483324483881776 -0.3293828350692055 -0.03266744614479207 -0.46754256780948267 -0.4566271053700285
-0.42425547899254096 0.38621418336669183 0.1077276102891335 -0.15086106763177493 -0.019745272442071207 -0.4187405729166053 -0.4525610434161129 -0.33504545568314725
-0.46610334186586416 0.316003678717771 -0.1669465412933265 -0.13061739217127094 -0.4136965590424556 0.07684494289931999 -0.07312673900468004 -0.3298769536522688
0.308041278192492 0.404406820880228 -0.3458985581303225 0.2705304593815251 -0.07797247932775388 -0.004666541783580886 0.19995639945595645 -0.0875685403414709
0.40376696570569925 0.29746553815694204 -0.3117956885445116 -0.2952447616710337 -0.475973392044978 0.15380461019902808 -0.3601237911085353 -0.40261581314146166
-0.31146670067918547 -0.47493208933565834 -0.3918653666177359 0.42787429719496 0.2683566722286979 0.42866166198943717 -0.2352445338687757 -0.197006293488036
00000000: fe15 66ee f289 d5bf 2aa2 ca18 8291 d23f
00000010: dfb5 8913 2534 dabf c351 7f18 82ba 703f
00000020: e54e e76d 1026 d9bf 1ad9 0f7d 70dc dbbf
00000030: a461 1fca 881e b0bf ead3 610b 42c0 db3f
00000040: 2522 9077 c310 dd3f 8c3f c790 af17 c63f
00000050: 55f5 39a7 03bf d73f a99a 66b4 35eb d0bf
00000060: fa01 42c2 054f d13f 89e3 a587 f8c3 d23f
00000070: b4bf aac7 3d77 ddbf c1d6 5164 768f d7bf
00000080: 0d0d 4255 c8bd ca3f e43a 780f 495f a63f
00000090: 27d2 292b 64cf d4bf 2ae6 b4dc c957 d8bf
000000a0: 2147 45e9 7a38 d63f ac92 7c82 0ee1 aa3f
000000b0: 2b69 646f 52da 63bf 5b67 ee5f 68b8 ddbf
000000c0: 1959 0cc3 5403 db3f 5ec8 4932 9a52 d4bf
000000d0: d375 4a94 316a cb3f 8234 92d8 8262 aebf
000000e0: 3083 1f2e 240c 903f eec7 5190 f944 ce3f
000000f0: 1402 8280 fd9a c0bf 160f 1ca3 873f c1bf
00000100: 01c0 fd2f dece d83f 627f f3ca 598e d7bf
00000110: f2da d153 48e2 ca3f 16b9 cb03 b464 bfbf
00000120: 24d7 4d2f dc8a c4bf b923 a17e cc9b d43f
00000130: e904 318a b4b9 b53f cbdf 5bd6 ea7f dcbf
00000140: 502c 4f38 0b79 db3f c7d3 cb98 6e79 cebf
00000150: 9741 98d1 88d1 da3f a955 1be6 ad1a c3bf
00000160: afe5 a13b 8ef9 dd3f 57a3 81e2 721e c23f
00000170: 10b1 25de a32a 90bf e352 68dd 7876 c73f
00000180: 526c 68ce d5cb 7cbf 04e6 b08d 5aea cebf
00000190: 7a25 e220 b0d0 d03f 1bd9 76c1 9ebf d33f
000001a0: 5512 ec23 15d0 aebf 8026 e51b 5eeb dc3f
000001b0: 26f0 1710 c09f 9d3f 12aa bbec 1444 d0bf
000001c0: 5b1c f84a 3c70 d0bf f3b4 3960 6aaf d43f
000001d0: 2512 470d d6e8 c8bf 7f5a 9072 d8e1 d33f
000001e0: bc89 b632 04dd ddbf 83e3 3029 635c 823f
000001f0: bf90 732f 1e82 d5bf 39ea 4f18 ecce c53f
00000200: 5a12 29ad 2ee3 d83f 64de 0748 8f32 c83f
00000210: c7a7 ac94 b821 c5bf e8a6 06b5 11d9 dcbf
00000220: 861d 1747 5522 cdbf f8a1 160f 6b09 d2bf
00000230: 2008 f929 0477 dd3f c1c2 bae1 e168 d0bf
00000240: dec8 2720 c1c5 c73f 65c8 25e8 cdb0 d83f
00000250: b36c 3fff 6e27 c63f aa8b bc5f 2dea dabf
00000260: 2c6b d943 abed abbf d0fe 9225 043f c2bf
00000270: 3249 8453 92d9 d33f 51bc 912c 5412 a7bf
00000280: dc75 739c 62ad 9abf bf6e a0f7 723d db3f
00000290: 9316 02e1 db43 bd3f 0058 8d9b 8a79 cc3f
000002a0: f963 c811 72cb c3bf 29be ae00 ef1a d43f
000002b0: 853c e013 35bf b13f 6648 e553 d1b4 b8bf
000002c0: a9b0 fe4f 7737 b73f 38fe 42ac 9533 d8bf
000002d0: 4c0e 05aa 6c0f 913f 308b ecff 073b cc3f
000002e0: 9956 a5cf 35ca dcbf e4a1 0600 9968 d0bf
000002f0: c2e6 ebb1 a367 d33f 4c3c d9ec 994b 863f
00000300: 4506 6e86 6ff9 8dbf 7acb 7fc5 391b a93f
00000310: a13c 4407 af98 cbbf 9c5e de8f 10b8 d93f
00000320: bdb8 a5ed e465 a8bf d259 1577 403e c6bf
00000330: 9f65 9580 d541 d03f 114f 59ed 3829 d9bf
00000340: a8da af51 7eb0 b6bf 4c86 86ef 72ba a83f
00000350: cafe 9f15 6e30 c3bf 0588 301e cbbc d03f
00000360: 623f f091 1241 dabf 4c26 5b3c 71bb c1bf
00000370: 10a6 7bc2 039f c9bf 57cd dea1 9f72 dc3f
00000380: bf7a 0428 37df c83f 1695 bdf5 0ccf d6bf
00000390: edf7 d3fe 12d4 c73f cfda 8ed6 414d 7ebf
000003a0: f21d 1df3 1625 dc3f c808 c525 57f7 d03f
000003b0: 612d 374f 961b d2bf 0595 8cbb c567 db3f
000003c0: a656 af20 206d b6bf c5b1 79a6 7102 bcbf
000003d0: 736e 476e 87ae c23f 6c27 4720 25b5 de3f
000003e0: 58fd 6f75 a98c c23f 3122 5e11 8ebe ddbf
000003f0: 607c 1def 16d7 c2bf 2b3d 45dd 04a0 dc3f
00000400: 2726 80d9 a8f9 c5bf 973b 5206 6395 cdbf
00000410: 1866 0d45 8d7c d8bf 7faf e9f8 f91f d1bf
00000420: 6b97 0b94 58cf d0bf d740 03c4 67f1 bc3f
00000430: 79a4 9772 47a7 c83f 7301 2201 4048 dd3f
00000440: 855f a2dd 6e2d d43f 80ed 84ea 6f57 7e3f
00000450: adf6 f803 487f d03f ac8c 1a56 e892 d13f
00000460: 6c2b 2fb8 f483 dabf 935a 6ff2 8801 cf3f
00000470: 1996 d489 3e10 d5bf da5f 09d8 d9bd d73f
00000480: e90a 0ef3 adf5 cabf 3dd9 2dd8 09bc b83f
00000490: b969 dec4 6fdb 74bf 05ac da9b c9f1 cb3f
000004a0: 26ad 61e8 7320 b33f 074a 037d 754d d6bf
000004b0: bc3d c7b2 cbf7 c83f de81 c531 b222 d23f
000004c0: 8880 84ed ed4e d0bf 0a51 231a 93f1 d3bf
000004d0: 45ec 00cc 9206 d5bf e100 41c1 20e9 cdbf
000004e0: 2a0c 8612 1101 afbf 3049 2b93 52b0 a13f
000004f0: 910d 79bc b0e9 73bf 8059 579b 9a42 c0bf
00000500: 5914 8de5 bb27 d33f a529 3ef1 92fe 993f
00000510: b003 375c c2d8 d1bf c54e ca6f f410 c0bf
00000520: 6336 d8f1 8913 d2bf 9476 19b0 dbc3 c5bf
00000530: 00dc 83b9 af04 ddbf df91 f5a1 ebd4 b53f
00000540: 5621 bfb7 64d2 d7bf 0022 b855 19c4 c73f
00000550: 3a93 ceb9 970a d53f f768 3d12 f7e7 d6bf
00000560: e877 ce5d 9239 d0bf cb80 4cf5 124c d8bf
00000570: 4f05 3b24 ce6f c03f 7f8d 7f4c 2acb b73f
00000580: 2d5f 5b4e 0297 cfbf b73f 2f1c eaac d23f
00000590: 5f50 4f62 8a83 c93f 6b38 7a21 8cba dbbf
000005a0: ef39 1f4c a6c0 9abf c14a 92d4 5278 cabf
000005b0: 8e57 13a1 c28b b5bf cddd 8596 7e1e d13f
000005c0: 1d2b b62d a364 aabf 0b47 65fc 3d5a d5bf
000005d0: 1d88 6b64 51b6 d53f 347f 64a2 9409 dcbf
000005e0: 37e0 d1de 0a1e c5bf 0dfe 3c2b 8bb9 c73f
000005f0: e6cb 32c1 0039 db3f 04d5 0728 7dd6 dd3f
00000600: cd0a 883f 530e bcbf 90bf 22c8 c584 c43f
00000610: 3f32 610e eefd dabf c4f3 dd36 565b b7bf
00000620: c6f1 b2b4 a120 c3bf c705 0ba3 4290 c13f
00000630: 296a 0a75 b314 d4bf 4be3 a5bc 7a16 bb3f
00000640: 525f c970 79c4 cf3f 7f1d ce86 ccf8 d73f
00000650: 73ab 2dcd ce94 b4bf 4515 99be 8f22 dc3f
00000660: f633 de0a 840c ddbf 8df8 cde5 bf6e c1bf
00000670: 2b67 914c c283 c73f 8fc5 cf31 1388 bf3f
00000680: 61b0 b7b2 8520 cd3f fa9f 1fb2 3a30 d4bf
00000690: 6288 d7c3 cbed d23f 6b05 e494 7ab1 dcbf
000006a0: 9e1a 1fbe 9b14 d5bf eae3 ab99 c9b9 a0bf
000006b0: 9cb1 8ea9 37ec ddbf c202 02e5 6039 ddbf
000006c0: 6bfe da73 0027 dbbf 27ec b3b1 bbb7 d83f
000006d0: 7a6c 1163 0994 bb3f 46eb db5b 6a4f c3bf
000006e0: 34a6 8ecd 1a38 94bf 0fd9 8b42 a5cc dabf
000006f0: 249d 3a98 c2f6 dcbf 4048 b57e 6271 d5bf
00000700: 43b1 771c a3d4 ddbf 8e8b 607e 6739 d43f
00000710: d37f 8417 815e c5bf 8e0b d519 12b8 c0bf
00000720: 6e86 e321 017a dabf c995 9d34 1cac b33f
00000730: 89fc 7c18 6fb8 b2bf a1ff e839 b41c d5bf
00000740: 19e8 e9c3 f2b6 d33f 276f 7d25 cde1 d93f
00000750: 81cf b9b4 3323 d6bf 7664 e7fc 5e50 d13f
00000760: a163 b320 01f6 b3bf bacb 8845 391d 73bf
00000770: fc05 25da 2b98 c93f a9d1 ec50 e46a b6bf
00000780: fc4f 3a66 51d7 d93f 018d 84e5 ac09 d33f
00000790: 5747 55e7 75f4 d3bf 5950 ec48 4ae5 d2bf
000007a0: 085c 261a 5976 debf 7ab1 6395 deaf c33f
000007b0: 08a7 54a8 440c d7bf b0e1 921d 75c4 d9bf
000007c0: a672 4d07 12ef d3bf 6820 e18f 4965 debf
000007d0: f9b9 8379 5214 d9bf eb15 50e0 4a62 db3f
000007e0: 79ae b876 c12c d13f fbca d252 316f db3f
000007f0: 62bb c32d 7e1c cebf cc92 d191 8037 c9bf
